The key points of this experiment: default
random seed: 325
====================Training loop No.1====================
GCSEE(
  (ae): AE(
    (enc_1): Linear(in_features=1433, out_features=500, bias=True)
    (enc_2): Linear(in_features=500, out_features=500, bias=True)
    (enc_3): Linear(in_features=500, out_features=2000, bias=True)
    (z_layer): Linear(in_features=2000, out_features=10, bias=True)
    (dec_1): Linear(in_features=10, out_features=2000, bias=True)
    (dec_2): Linear(in_features=2000, out_features=500, bias=True)
    (dec_3): Linear(in_features=500, out_features=500, bias=True)
    (x_bar_layer): Linear(in_features=500, out_features=1433, bias=True)
  )
  (gat): GAT(
    (conv1): GraphAttentionLayer (1433 -> 500)
    (conv2): GraphAttentionLayer (500 -> 500)
    (conv3): GraphAttentionLayer (500 -> 2000)
    (conv4): GraphAttentionLayer (2000 -> 10)
  )
  (gcn1): GCN(
    (activate): ReLU()
  )
  (gcn2): FAFGC(
    (mlp): Linear(in_features=1000, out_features=2, bias=True)
    (gcn): GCN(
      (activate): ReLU()
    )
  )
  (gcn3): FAFGC(
    (mlp): Linear(in_features=1000, out_features=2, bias=True)
    (gcn): GCN(
      (activate): ReLU()
    )
  )
  (gcn4): FAFGC(
    (mlp): Linear(in_features=4000, out_features=2, bias=True)
    (gcn): GCN(
      (activate): ReLU()
    )
  )
  (sf): SFGC(
    (mlp1): Linear(in_features=3020, out_features=5, bias=True)
    (scale_GCN): GCN()
  )
)
epoch: 001		acc: 0.3179		nmi: 0.0339		ari: 0.0038		f1: 0.0965		
epoch: 002		acc: 0.4247		nmi: 0.2057		ari: 0.1078		f1: 0.1977		
epoch: 003		acc: 0.4295		nmi: 0.2358		ari: 0.0978		f1: 0.2250		
epoch: 004		acc: 0.4490		nmi: 0.2818		ari: 0.1638		f1: 0.2623		
epoch: 005		acc: 0.5133		nmi: 0.3600		ari: 0.2484		f1: 0.4723		
epoch: 006		acc: 0.5247		nmi: 0.3644		ari: 0.2515		f1: 0.4138		
…
